data.pth (torch, 5439 bytes, 6 tensors)

l1.weight f4 [8, 63]
00000000: 3d23 9a3e f4df b3bd c54e 913c d7a8 5bbe
00000010: 37fa 6abe 92bc c1be e00f 883e 7b3c 5f3e
00000020: 5b05 1ebe ec7f 1b3f d2aa 59bd a4dd a43d
00000030: 26a5 62be 01c6 3b3f 63a3 a33e 7958 db3e
00000040: a636 b6bd ebe1 02be 2680 bf3e 4938 0c3c
00000050: fe0a 44be 29f5 a03e 5fb0 923e 005f d3be
00000060: 8590 b83e 5665 d3be 3a71 d3be b9b5 54be
00000070: 28ac ed3e fec5 84be 6ca6 1c3f 8d5d b1be
00000080: 0a43 ce3e ac6e 40be 48cf 023e db82 163f
00000090: b4e1 a13e fbfc cd3d 8cc0 2bbd dad4 6dbb
000000a0: a85f 043f 612c 943e 0638 1b3f 7805 203f
000000b0: e3fb dc3d 3481 903e 4ce3 0bbf 5ea2 be3b
000000c0: 74b9 ce3e c63e 10be ac94 bc3e 9d1f f5bd
000000d0: 453d 423f 4b49 e53e f513 fabe d044 7a3d
000000e0: 852f eb3e df90 e03e 6232 1a3f e46f aa3e
000000f0: 631f af3e 0860 7f3e df03 823d ca42 123e
00000100: 73e9 f2bd 8f52 c3be 39fa eb3e 741d 513e
00000110: e7a2 f13e 949f 463f 0b73 13be b834 04be
00000120: c41f 17bf 91ab 1c3f 9ce3 e5bd 5981 033f
00000130: c9a3 d2be 1a90 4ebe b2b0 b0be 502a 173f
00000140: 1cca b7bd c914 89bd 8f52 a23e 5ecb 0a3f
00000150: 8c17 2c3f e47b 963e dc00 1b3f a0fa c9be
00000160: 7bae 173f 3082 343f 3d53 ca3e 573a 55be
00000170: e945 0f3f e7f4 e6bd 1ef8 1cbe f5eb cbbe
00000180: 304f c73d 93f2 053f 9a4a 89be 0135 e73b
00000190: becd a4be 7618 a63e eda9 0e3f fdc0 c73d
000001a0: 1791 97bd 65f5 22be c137 eebe ab37 8bbe
000001b0: eacd b8bd edca 243f e8ef 053f 2a04 87bd
000001c0: 6ce5 7cbe 2dca 9bbe 1fcc c8be c20d 65bf
000001d0: ad3f a1be 5ac3 d73e 38e7 c73e c587 f2be
000001e0: 5d8b 0abf 319a cf3e 61be f23b d7d4 9b3e
000001f0: 08ab 60be 6f41 a33d 5046 c13d 0a39 edbc
00000200: 9ab9 f9bd 4825 75bc 5ec1 a1bd 0fe5 e63c
00000210: 04d4 663d 550b a7bd 16b4 dd3d 8e03 ad3d
00000220: 56aa b0bd 561a dc3d 48b6 1a3d c031 edba
00000230: 9a8b b4bc e023 e73b 18a9 543d 3051 bc3d
00000240: 800c ed3c 04a1 c1bd 00a7 933c 1ab2 61bd
00000250: e07a 5fbd 803c 003c a641 2ebd bacc 903d
00000260: 6454 043d 58f6 c53c b45e e2bd 4182 fabd
00000270: 1822 7abd 3c7b cd3d 767e 903d 5ea3 f1bd
00000280: c42a 213d 831b f1bd 5826 fbbc a6b5 eebd
00000290: 776d 9dba a401 8c3d 7859 c13c 8862 073d
000002a0: 2c62 cabc da87 b7bd 34ca 343d 4a3f d93d
000002b0: 1851 b53d e03a 54bc a66b b0bd 6cb2 e9bc
000002c0: 075b 973b 4bbd ff3c 0894 f1bc daeb 47bd
000002d0: ee6d f5bd b017 2ebc fcd4 533d 402c b9bd
000002e0: 1137 65bc 6046 383d 8604 b8bd ae4b 003e
000002f0: 7930 cbbd 16f0 283f 41a5 80bd 9517 acbe
00000300: 8e91 923e 738f edbd 16e8 dc3e ea26 cbbe
00000310: 291c dabd 6e6d 5bbe d927 13bf 7191 0a3f
00000320: 1242 75be 84d9 b23e 0560 c8be 63ad d9be
00000330: c182 81be bf14 163f 4835 febd 248f d0bc
00000340: 75d1 d33e 6f9c cb3e b7e1 b0be bf4e 27bd
00000350: 27a4 f53e 7153 0e3f dcde dc3e 68fb 063f
00000360: 7eb7 f33e 490b 63be 7395 783e f193 3d3c
00000370: d297 14be 59b7 e3bd ba17 39be 6e22 52be
00000380: d1cd 1fbe ace5 d93e bbfd a5be 7fa1 e53d
00000390: 6fc9 ac3e 1c39 7a3e c483 d4bd 2af3 11be
000003a0: 71f4 c9be 97aa 55be 6c64 22be 9b8c 173f
000003b0: b922 0dbe d253 66be da42 efbd 396a 53be
000003c0: d600 d5be 4b0d 913f 9484 dc3e 76d7 fd3e
000003d0: 15cd 813e e316 88be b9ae cabe 3871 f33e
000003e0: 912e fbbd ce68 113e c2c1 02be a82a 863e
000003f0: e162 0c3f 1fb6 c93c 603a 0abf b6d8 6bbe
0.3010501 -0.0878295 0.017737756 -0.21451126 -0.22947012 -0.3783918 0.26574612 0.21800415
-0.1543173 0.6074207 -0.053141423 0.08050087 -0.22133312 0.73349005 0.31960592 0.42840937
-0.08897142 -0.12781493 0.37402457 0.008558341 -0.19144818 0.31437042 0.28650185 -0.41283417
0.3604776 -0.4128825 -0.41297323 -0.20772447 0.46420407 -0.25932306 0.6119144 -0.34641686
0.40285522 -0.18792218 0.12774384 0.5879342 0.3161751 0.10058018 -0.041931674 -0.00362902
0.5170846 0.28940108 0.6063236 0.62508345 0.10790231 0.28223574 -0.546437 0.0058176955
0.40375865 -0.14086446 0.36832178 -0.119689204 0.7587474 0.4478248 -0.4884335 0.06110078
0.45934692 0.43860528 0.6023313 0.3328849 0.34203634 0.24938977 0.063483946 0.1428329
-0.11860933 -0.38148925 0.46089342 0.20421392 0.47194597 0.77587247 -0.14399354 -0.12910736
-0.59032845 0.6119929 -0.11225054 0.51369244 -0.41140583 -0.20172158 -0.34509808 0.5904894
-0.08974096 -0.066934176 0.31703612 0.54216564 0.6722343 0.29391396 0.60548186 -0.39449024
0.5925061 0.7051115 0.3951663 -0.20823036 0.5596605 -0.1127718 -0.15329024 -0.39828458
0.09731901 0.52323264 -0.2681473 0.007055879 -0.3218822 0.32440537 0.55728036 0.097536065
-0.074007206 -0.15913923 -0.46526912 -0.2719091 -0.0902365 0.6437214 0.5231919 -0.06592591
-0.24696892 -0.30427685 -0.39218232 -0.8947412 -0.31493893 0.4214123 0.39043593 -0.4736921
-0.541189 0.40547326 0.007407949 0.3043582 -0.21940243 0.07971465 0.09437239 -0.028957862
-0.12193604 -0.014962502 -0.0789821 0.028185396 0.056354538 -0.08156458 0.10825364 0.08447944
-0.08626239 0.10747211 0.037771493 -0.0018096492 -0.022039223 0.007053837 0.051919073 0.09195173
0.028936625 -0.094545394 0.018023968 -0.05510149 -0.054560542 0.007826924 -0.042543076 0.070702985
0.032307044 0.024165317 -0.110532194 -0.12231875 -0.06106767 0.10033271 0.070553705 -0.11798738
0.039347425 -0.117728256 -0.030657932 -0.116557404 -0.0012010772 0.068362504 0.023602232 0.03305295
-0.024705015 -0.089614585 0.04413815 0.106077746 0.08853358 -0.01295349 -0.08614282 -0.028527461
0.0046190056 0.031218192 -0.029489532 -0.04880891 -0.11983858 -0.010625765 0.05171679 -0.09041643
-0.01399018 0.04498899 -0.08985238 0.1252887 -0.09921355 0.6599134 -0.0628152 -0.33611742
0.28626674 -0.115996264 0.43145818 -0.39678127 -0.106499024 -0.21428463 -0.5748268 0.54128176
-0.23950985 0.34931576 -0.39135757 -0.42515096 -0.2529507 0.58625406 -0.12412506 -0.02545888
0.4137074 0.39767787 -0.34547207 -0.040846583 0.479768 0.5559607 0.43138778 0.52727365
0.4760093 -0.22172274 0.2427576 0.0115709165 -0.1451104 -0.11118955 -0.18075457 -0.20520946
-0.15605856 0.42558038 -0.32420143 0.112124436 0.33747432 0.24435848 -0.10376695 -0.14252916
-0.39444306 -0.20865856 -0.1585862 0.5919892 -0.13782777 -0.22492912 -0.11682673 -0.2064599
-0.416022 1.1332182 0.430699 0.49578446 0.25351778 -0.2657996 -0.39586428 0.47547317
-0.12264741 0.14200136 -0.12769225 0.2620442 0.5483838 0.024622975 -0.53995323 -0.23031887

l1.bias f4 [8]
00000000: bf5b d33e 5708 6f3f 3a76 febd 0fbd 523f
00000010: e78a 003f a34e 223f 461e 893f 349b 0b3f
0.41280934 0.933721 -0.12424894 0.8231973 0.5021195 0.6340124 1.0712364 0.54533696

l2.weight f4 [8, 8]
00000000: 1acf ae3f 1757 813e d3d0 573e 9545 6e3f
00000010: 0dad 993f 587b 973f 561e 39bf 6adc 2ebf
00000020: 2a72 353f 3b1d d0bd 1204 83be 2194 7b3f
00000030: 7cbf 803f a6f0 903e a484 febe ae1f 35bd
00000040: d7cf 82bf 56c3 b53f 6f21 8ebd 1ac9 583f
00000050: 7dae 923d 9d46 a2bf ba8d 873e 6172 043f
00000060: 8f7f 5b3f 5460 92bf 3685 153e c296 94be
00000070: bfd7 9ebe 0a73 953f 8d90 793f 0f43 4b3f
00000080: cb06 a63e 22d5 913e 96d2 7cbe 22fa 72bf
00000090: 5759 19bf 20ef 933f 08e8 193f 7e65 1d3e
000000a0: a87e bbbe dca7 643f 0de9 a5be d013 b33f
000000b0: 4e37 0fbf 1fb0 2b3f 0d1c b83f 9c63 08bf
000000c0: fe8a 833f 2c47 76bf b28b 603e cfbb c6be
000000d0: 22fe 343f dcff 7ebc bb7a b53d 8837 903f
000000e0: f85e 913d dc6c a1bd 5467 17be 4c68 70be
000000f0: b01d bbbc e00b 61bc 10d6 86bd bfb3 68be
1.3656952 0.25261757 0.21075754 0.93074924 1.2005936 1.1834517 -0.72311914 -0.68305075
0.70877326 -0.10161825 -0.25589043 0.982729 1.0058436 0.283086 -0.49710572 -0.044219665
-1.0219678 1.4200237 -0.06939971 0.84681857 0.07162187 -1.26778 0.26475316 0.5173703
0.85741514 -1.1435647 0.14601597 -0.2902127 -0.31023976 1.1675732 0.9748619 0.793992
0.32427058 0.2848292 -0.24689707 -0.9491292 -0.59901947 1.155735 0.60119677 0.15370747
-0.3662007 0.89318633 -0.32404366 1.3990421 -0.55943763 0.67065614 1.438356 -0.5327699
1.0276792 -0.9620235 0.2192829 -0.38815162 0.70700276 -0.015563931 0.088612996 1.1266947
0.07098192 -0.078820914 -0.1478551 -0.23477286 -0.022841305 -0.013735741 -0.06583798 -0.22724818

l2.bias f4 [8]
00000000: 53a9 a23e d23f 7fbe a573 6d3f dfae ee3d
00000010: 0897 95be 74ab 1f3f 860d 533f c087 97bd
0.3176981 -0.2492669 0.92754585 0.11654448 -0.2921679 0.6237099 0.8244251 -0.07398939

l3.weight f4 [8, 8]
00000000: 58b4 0b3e 3ed8 4c3e bac7 98bf dcb0 8f3e
00000010: 0d9d 563d 4159 9ebf 462c 8f3e 1462 bfbd
00000020: cc80 6ebf aba1 45bf 6403 2b3f 8e85 553d
00000030: 624b a1bf c0f1 20bf bfd3 4d3f 9200 97be
00000040: 7f2f 413e 965b bcbf 02c8 7abe 4222 08be
00000050: 2ba5 633f c451 153f fc79 9cbf c0f5 613c
00000060: 9222 1fbf 2984 b1bf c72b 6c3f 3ebd a8bf
00000070: 1c75 6ebf 5c9b 583f 53c0 28bf 5af2 9abe
00000080: 2d2b 453f 37a0 e33e def3 0fbf 99fa c3bf
00000090: 58a1 6dbf 8364 76bf ca74 653e 69f6 77be
000000a0: 7f35 52bf ae86 17bf 6998 94bf 4f88 033f
000000b0: e952 543f 5296 37be f914 823e a0e6 6abd
000000c0: 37ea b03e b386 173f a7b0 003f c2d1 b9bf
000000d0: 4267 84bf ee5c a2bc 35e3 92bf a86a 89bd
000000e0: 748a ca3e 2e71 6f3e ea3f 8abf b114 30be
000000f0: 5677 87bf 5ecf 063f 5c7d a5be 20af 92bd
0.13643014 0.20004365 -1.1935952 0.2806462 0.05239587 -1.2370988 0.27963465 -0.09344879
-0.9316528 -0.7719981 0.6680205 0.05212932 -1.260113 -0.6286888 0.80401224 -0.29492623
0.18865775 -1.471545 -0.2449036 -0.13294318 0.889239 0.5832789 -1.2224727 0.0137915015
-0.62162125 -1.3868457 0.922543 -1.3182752 -0.93147445 0.8461206 -0.65918463 -0.30263025
0.77019006 0.44458172 -0.56231487 -1.5310851 -0.92824316 -0.9624712 0.22407833 -0.24215092
-0.8211288 -0.5918988 -1.1609012 0.51379865 0.8293901 -0.17928436 0.25406626 -0.057348847
0.34553692 0.5918991 0.5026955 -1.4517138 -1.0344012 -0.019819703 -1.1475588 -0.06709796
0.39558756 0.23383018 -1.0800755 -0.17195393 -1.0583293 0.5266017 -0.32322204 -0.07162309

l3.bias f4 [8]
00000000: 385a e4bd 7669 c23e 502a b7bd 00c6 ad3e
00000010: 1f59 cd3e 6936 81be 1f40 00bf bc6a c0be
-0.1115002 0.37971085 -0.08943617 0.33940125 0.40107056 -0.25236824 -0.5009784 -0.37581432
